Construct the Network

__________________________________________________________________________________________________
Layer (type)                    Output Shape         Param #     Connected to                     
==================================================================================================
input_2 (InputLayer)            (None, 32, 32, 3)    0                                            
__________________________________________________________________________________________________
ternary_conv2d_1 (TernaryConv2D (None, 32, 32, 16)   448         input_2[0][0]                    
__________________________________________________________________________________________________
batch_normalization_1 (BatchNor (None, 32, 32, 16)   64          ternary_conv2d_1[0][0]           
__________________________________________________________________________________________________
leaky_re_lu_1 (LeakyReLU)       (None, 32, 32, 16)   0           batch_normalization_1[0][0]      
__________________________________________________________________________________________________
ternary_conv2d_2 (TernaryConv2D (None, 32, 32, 16)   2320        leaky_re_lu_1[0][0]              
__________________________________________________________________________________________________
batch_normalization_2 (BatchNor (None, 32, 32, 16)   64          ternary_conv2d_2[0][0]           
__________________________________________________________________________________________________
leaky_re_lu_2 (LeakyReLU)       (None, 32, 32, 16)   0           batch_normalization_2[0][0]      
__________________________________________________________________________________________________
ternary_conv2d_3 (TernaryConv2D (None, 32, 32, 16)   2320        leaky_re_lu_2[0][0]              
__________________________________________________________________________________________________
batch_normalization_3 (BatchNor (None, 32, 32, 16)   64          ternary_conv2d_3[0][0]           
__________________________________________________________________________________________________
add_1 (Add)                     (None, 32, 32, 16)   0           leaky_re_lu_1[0][0]              
                                                                 batch_normalization_3[0][0]      
__________________________________________________________________________________________________
leaky_re_lu_3 (LeakyReLU)       (None, 32, 32, 16)   0           add_1[0][0]                      
__________________________________________________________________________________________________
ternary_conv2d_4 (TernaryConv2D (None, 32, 32, 16)   2320        leaky_re_lu_3[0][0]              
__________________________________________________________________________________________________
batch_normalization_4 (BatchNor (None, 32, 32, 16)   64          ternary_conv2d_4[0][0]           
__________________________________________________________________________________________________
leaky_re_lu_4 (LeakyReLU)       (None, 32, 32, 16)   0           batch_normalization_4[0][0]      
__________________________________________________________________________________________________
ternary_conv2d_5 (TernaryConv2D (None, 32, 32, 16)   2320        leaky_re_lu_4[0][0]              
__________________________________________________________________________________________________
batch_normalization_5 (BatchNor (None, 32, 32, 16)   64          ternary_conv2d_5[0][0]           
__________________________________________________________________________________________________
add_2 (Add)                     (None, 32, 32, 16)   0           leaky_re_lu_3[0][0]              
                                                                 batch_normalization_5[0][0]      
__________________________________________________________________________________________________
leaky_re_lu_5 (LeakyReLU)       (None, 32, 32, 16)   0           add_2[0][0]                      
__________________________________________________________________________________________________
ternary_conv2d_6 (TernaryConv2D (None, 32, 32, 16)   2320        leaky_re_lu_5[0][0]              
__________________________________________________________________________________________________
batch_normalization_6 (BatchNor (None, 32, 32, 16)   64          ternary_conv2d_6[0][0]           
__________________________________________________________________________________________________
leaky_re_lu_6 (LeakyReLU)       (None, 32, 32, 16)   0           batch_normalization_6[0][0]      
__________________________________________________________________________________________________
ternary_conv2d_7 (TernaryConv2D (None, 32, 32, 16)   2320        leaky_re_lu_6[0][0]              
__________________________________________________________________________________________________
batch_normalization_7 (BatchNor (None, 32, 32, 16)   64          ternary_conv2d_7[0][0]           
__________________________________________________________________________________________________
add_3 (Add)                     (None, 32, 32, 16)   0           leaky_re_lu_5[0][0]              
                                                                 batch_normalization_7[0][0]      
__________________________________________________________________________________________________
leaky_re_lu_7 (LeakyReLU)       (None, 32, 32, 16)   0           add_3[0][0]                      
__________________________________________________________________________________________________
ternary_conv2d_8 (TernaryConv2D (None, 32, 32, 16)   2320        leaky_re_lu_7[0][0]              
__________________________________________________________________________________________________
batch_normalization_8 (BatchNor (None, 32, 32, 16)   64          ternary_conv2d_8[0][0]           
__________________________________________________________________________________________________
leaky_re_lu_8 (LeakyReLU)       (None, 32, 32, 16)   0           batch_normalization_8[0][0]      
__________________________________________________________________________________________________
ternary_conv2d_9 (TernaryConv2D (None, 32, 32, 16)   2320        leaky_re_lu_8[0][0]              
__________________________________________________________________________________________________
batch_normalization_9 (BatchNor (None, 32, 32, 16)   64          ternary_conv2d_9[0][0]           
__________________________________________________________________________________________________
add_4 (Add)                     (None, 32, 32, 16)   0           leaky_re_lu_7[0][0]              
                                                                 batch_normalization_9[0][0]      
__________________________________________________________________________________________________
leaky_re_lu_9 (LeakyReLU)       (None, 32, 32, 16)   0           add_4[0][0]                      
__________________________________________________________________________________________________
ternary_conv2d_10 (TernaryConv2 (None, 32, 32, 16)   2320        leaky_re_lu_9[0][0]              
__________________________________________________________________________________________________
batch_normalization_10 (BatchNo (None, 32, 32, 16)   64          ternary_conv2d_10[0][0]          
__________________________________________________________________________________________________
leaky_re_lu_10 (LeakyReLU)      (None, 32, 32, 16)   0           batch_normalization_10[0][0]     
__________________________________________________________________________________________________
ternary_conv2d_11 (TernaryConv2 (None, 32, 32, 16)   2320        leaky_re_lu_10[0][0]             
__________________________________________________________________________________________________
batch_normalization_11 (BatchNo (None, 32, 32, 16)   64          ternary_conv2d_11[0][0]          
__________________________________________________________________________________________________
add_5 (Add)                     (None, 32, 32, 16)   0           leaky_re_lu_9[0][0]              
                                                                 batch_normalization_11[0][0]     
__________________________________________________________________________________________________
leaky_re_lu_11 (LeakyReLU)      (None, 32, 32, 16)   0           add_5[0][0]                      
__________________________________________________________________________________________________
ternary_conv2d_12 (TernaryConv2 (None, 32, 32, 16)   2320        leaky_re_lu_11[0][0]             
__________________________________________________________________________________________________
batch_normalization_12 (BatchNo (None, 32, 32, 16)   64          ternary_conv2d_12[0][0]          
__________________________________________________________________________________________________
leaky_re_lu_12 (LeakyReLU)      (None, 32, 32, 16)   0           batch_normalization_12[0][0]     
__________________________________________________________________________________________________
ternary_conv2d_13 (TernaryConv2 (None, 32, 32, 16)   2320        leaky_re_lu_12[0][0]             
__________________________________________________________________________________________________
batch_normalization_13 (BatchNo (None, 32, 32, 16)   64          ternary_conv2d_13[0][0]          
__________________________________________________________________________________________________
add_6 (Add)                     (None, 32, 32, 16)   0           leaky_re_lu_11[0][0]             
                                                                 batch_normalization_13[0][0]     
__________________________________________________________________________________________________
leaky_re_lu_13 (LeakyReLU)      (None, 32, 32, 16)   0           add_6[0][0]                      
__________________________________________________________________________________________________
ternary_conv2d_14 (TernaryConv2 (None, 32, 32, 16)   2320        leaky_re_lu_13[0][0]             
__________________________________________________________________________________________________
batch_normalization_14 (BatchNo (None, 32, 32, 16)   64          ternary_conv2d_14[0][0]          
__________________________________________________________________________________________________
leaky_re_lu_14 (LeakyReLU)      (None, 32, 32, 16)   0           batch_normalization_14[0][0]     
__________________________________________________________________________________________________
ternary_conv2d_15 (TernaryConv2 (None, 32, 32, 16)   2320        leaky_re_lu_14[0][0]             
__________________________________________________________________________________________________
batch_normalization_15 (BatchNo (None, 32, 32, 16)   64          ternary_conv2d_15[0][0]          
__________________________________________________________________________________________________
add_7 (Add)                     (None, 32, 32, 16)   0           leaky_re_lu_13[0][0]             
                                                                 batch_normalization_15[0][0]     
__________________________________________________________________________________________________
leaky_re_lu_15 (LeakyReLU)      (None, 32, 32, 16)   0           add_7[0][0]                      
__________________________________________________________________________________________________
ternary_conv2d_16 (TernaryConv2 (None, 32, 32, 16)   2320        leaky_re_lu_15[0][0]             
__________________________________________________________________________________________________
batch_normalization_16 (BatchNo (None, 32, 32, 16)   64          ternary_conv2d_16[0][0]          
__________________________________________________________________________________________________
leaky_re_lu_16 (LeakyReLU)      (None, 32, 32, 16)   0           batch_normalization_16[0][0]     
__________________________________________________________________________________________________
ternary_conv2d_17 (TernaryConv2 (None, 32, 32, 16)   2320        leaky_re_lu_16[0][0]             
__________________________________________________________________________________________________
batch_normalization_17 (BatchNo (None, 32, 32, 16)   64          ternary_conv2d_17[0][0]          
__________________________________________________________________________________________________
add_8 (Add)                     (None, 32, 32, 16)   0           leaky_re_lu_15[0][0]             
                                                                 batch_normalization_17[0][0]     
__________________________________________________________________________________________________
leaky_re_lu_17 (LeakyReLU)      (None, 32, 32, 16)   0           add_8[0][0]                      
__________________________________________________________________________________________________
ternary_conv2d_18 (TernaryConv2 (None, 32, 32, 16)   2320        leaky_re_lu_17[0][0]             
__________________________________________________________________________________________________
batch_normalization_18 (BatchNo (None, 32, 32, 16)   64          ternary_conv2d_18[0][0]          
__________________________________________________________________________________________________
leaky_re_lu_18 (LeakyReLU)      (None, 32, 32, 16)   0           batch_normalization_18[0][0]     
__________________________________________________________________________________________________
ternary_conv2d_19 (TernaryConv2 (None, 32, 32, 16)   2320        leaky_re_lu_18[0][0]             
__________________________________________________________________________________________________
batch_normalization_19 (BatchNo (None, 32, 32, 16)   64          ternary_conv2d_19[0][0]          
__________________________________________________________________________________________________
add_9 (Add)                     (None, 32, 32, 16)   0           leaky_re_lu_17[0][0]             
                                                                 batch_normalization_19[0][0]     
__________________________________________________________________________________________________
leaky_re_lu_19 (LeakyReLU)      (None, 32, 32, 16)   0           add_9[0][0]                      
__________________________________________________________________________________________________
ternary_conv2d_20 (TernaryConv2 (None, 32, 32, 16)   2320        leaky_re_lu_19[0][0]             
__________________________________________________________________________________________________
batch_normalization_20 (BatchNo (None, 32, 32, 16)   64          ternary_conv2d_20[0][0]          
__________________________________________________________________________________________________
leaky_re_lu_20 (LeakyReLU)      (None, 32, 32, 16)   0           batch_normalization_20[0][0]     
__________________________________________________________________________________________________
ternary_conv2d_21 (TernaryConv2 (None, 32, 32, 16)   2320        leaky_re_lu_20[0][0]             
__________________________________________________________________________________________________
batch_normalization_21 (BatchNo (None, 32, 32, 16)   64          ternary_conv2d_21[0][0]          
__________________________________________________________________________________________________
add_10 (Add)                    (None, 32, 32, 16)   0           leaky_re_lu_19[0][0]             
                                                                 batch_normalization_21[0][0]     
__________________________________________________________________________________________________
leaky_re_lu_21 (LeakyReLU)      (None, 32, 32, 16)   0           add_10[0][0]                     
__________________________________________________________________________________________________
ternary_conv2d_22 (TernaryConv2 (None, 16, 16, 32)   4640        leaky_re_lu_21[0][0]             
__________________________________________________________________________________________________
batch_normalization_22 (BatchNo (None, 16, 16, 32)   128         ternary_conv2d_22[0][0]          
__________________________________________________________________________________________________
leaky_re_lu_22 (LeakyReLU)      (None, 16, 16, 32)   0           batch_normalization_22[0][0]     
__________________________________________________________________________________________________
ternary_conv2d_23 (TernaryConv2 (None, 16, 16, 32)   9248        leaky_re_lu_22[0][0]             
__________________________________________________________________________________________________
ternary_conv2d_24 (TernaryConv2 (None, 16, 16, 32)   544         leaky_re_lu_21[0][0]             
__________________________________________________________________________________________________
batch_normalization_23 (BatchNo (None, 16, 16, 32)   128         ternary_conv2d_23[0][0]          
__________________________________________________________________________________________________
add_11 (Add)                    (None, 16, 16, 32)   0           ternary_conv2d_24[0][0]          
                                                                 batch_normalization_23[0][0]     
__________________________________________________________________________________________________
leaky_re_lu_23 (LeakyReLU)      (None, 16, 16, 32)   0           add_11[0][0]                     
__________________________________________________________________________________________________
ternary_conv2d_25 (TernaryConv2 (None, 16, 16, 32)   9248        leaky_re_lu_23[0][0]             
__________________________________________________________________________________________________
batch_normalization_24 (BatchNo (None, 16, 16, 32)   128         ternary_conv2d_25[0][0]          
__________________________________________________________________________________________________
leaky_re_lu_24 (LeakyReLU)      (None, 16, 16, 32)   0           batch_normalization_24[0][0]     
__________________________________________________________________________________________________
ternary_conv2d_26 (TernaryConv2 (None, 16, 16, 32)   9248        leaky_re_lu_24[0][0]             
__________________________________________________________________________________________________
batch_normalization_25 (BatchNo (None, 16, 16, 32)   128         ternary_conv2d_26[0][0]          
__________________________________________________________________________________________________
add_12 (Add)                    (None, 16, 16, 32)   0           leaky_re_lu_23[0][0]             
                                                                 batch_normalization_25[0][0]     
__________________________________________________________________________________________________
leaky_re_lu_25 (LeakyReLU)      (None, 16, 16, 32)   0           add_12[0][0]                     
__________________________________________________________________________________________________
ternary_conv2d_27 (TernaryConv2 (None, 16, 16, 32)   9248        leaky_re_lu_25[0][0]             
__________________________________________________________________________________________________
batch_normalization_26 (BatchNo (None, 16, 16, 32)   128         ternary_conv2d_27[0][0]          
__________________________________________________________________________________________________
leaky_re_lu_26 (LeakyReLU)      (None, 16, 16, 32)   0           batch_normalization_26[0][0]     
__________________________________________________________________________________________________
ternary_conv2d_28 (TernaryConv2 (None, 16, 16, 32)   9248        leaky_re_lu_26[0][0]             
__________________________________________________________________________________________________
batch_normalization_27 (BatchNo (None, 16, 16, 32)   128         ternary_conv2d_28[0][0]          
__________________________________________________________________________________________________
add_13 (Add)                    (None, 16, 16, 32)   0           leaky_re_lu_25[0][0]             
                                                                 batch_normalization_27[0][0]     
__________________________________________________________________________________________________
leaky_re_lu_27 (LeakyReLU)      (None, 16, 16, 32)   0           add_13[0][0]                     
__________________________________________________________________________________________________
ternary_conv2d_29 (TernaryConv2 (None, 16, 16, 32)   9248        leaky_re_lu_27[0][0]             
__________________________________________________________________________________________________
batch_normalization_28 (BatchNo (None, 16, 16, 32)   128         ternary_conv2d_29[0][0]          
__________________________________________________________________________________________________
leaky_re_lu_28 (LeakyReLU)      (None, 16, 16, 32)   0           batch_normalization_28[0][0]     
__________________________________________________________________________________________________
ternary_conv2d_30 (TernaryConv2 (None, 16, 16, 32)   9248        leaky_re_lu_28[0][0]             
__________________________________________________________________________________________________
batch_normalization_29 (BatchNo (None, 16, 16, 32)   128         ternary_conv2d_30[0][0]          
__________________________________________________________________________________________________
add_14 (Add)                    (None, 16, 16, 32)   0           leaky_re_lu_27[0][0]             
                                                                 batch_normalization_29[0][0]     
__________________________________________________________________________________________________
leaky_re_lu_29 (LeakyReLU)      (None, 16, 16, 32)   0           add_14[0][0]                     
__________________________________________________________________________________________________
ternary_conv2d_31 (TernaryConv2 (None, 16, 16, 32)   9248        leaky_re_lu_29[0][0]             
__________________________________________________________________________________________________
batch_normalization_30 (BatchNo (None, 16, 16, 32)   128         ternary_conv2d_31[0][0]          
__________________________________________________________________________________________________
leaky_re_lu_30 (LeakyReLU)      (None, 16, 16, 32)   0           batch_normalization_30[0][0]     
__________________________________________________________________________________________________
ternary_conv2d_32 (TernaryConv2 (None, 16, 16, 32)   9248        leaky_re_lu_30[0][0]             
__________________________________________________________________________________________________
batch_normalization_31 (BatchNo (None, 16, 16, 32)   128         ternary_conv2d_32[0][0]          
__________________________________________________________________________________________________
add_15 (Add)                    (None, 16, 16, 32)   0           leaky_re_lu_29[0][0]             
                                                                 batch_normalization_31[0][0]     
__________________________________________________________________________________________________
leaky_re_lu_31 (LeakyReLU)      (None, 16, 16, 32)   0           add_15[0][0]                     
__________________________________________________________________________________________________
ternary_conv2d_33 (TernaryConv2 (None, 16, 16, 32)   9248        leaky_re_lu_31[0][0]             
__________________________________________________________________________________________________
batch_normalization_32 (BatchNo (None, 16, 16, 32)   128         ternary_conv2d_33[0][0]          
__________________________________________________________________________________________________
leaky_re_lu_32 (LeakyReLU)      (None, 16, 16, 32)   0           batch_normalization_32[0][0]     
__________________________________________________________________________________________________
ternary_conv2d_34 (TernaryConv2 (None, 16, 16, 32)   9248        leaky_re_lu_32[0][0]             
__________________________________________________________________________________________________
batch_normalization_33 (BatchNo (None, 16, 16, 32)   128         ternary_conv2d_34[0][0]          
__________________________________________________________________________________________________
add_16 (Add)                    (None, 16, 16, 32)   0           leaky_re_lu_31[0][0]             
                                                                 batch_normalization_33[0][0]     
__________________________________________________________________________________________________
leaky_re_lu_33 (LeakyReLU)      (None, 16, 16, 32)   0           add_16[0][0]                     
__________________________________________________________________________________________________
ternary_conv2d_35 (TernaryConv2 (None, 16, 16, 32)   9248        leaky_re_lu_33[0][0]             
__________________________________________________________________________________________________
batch_normalization_34 (BatchNo (None, 16, 16, 32)   128         ternary_conv2d_35[0][0]          
__________________________________________________________________________________________________
leaky_re_lu_34 (LeakyReLU)      (None, 16, 16, 32)   0           batch_normalization_34[0][0]     
__________________________________________________________________________________________________
ternary_conv2d_36 (TernaryConv2 (None, 16, 16, 32)   9248        leaky_re_lu_34[0][0]             
__________________________________________________________________________________________________
batch_normalization_35 (BatchNo (None, 16, 16, 32)   128         ternary_conv2d_36[0][0]          
__________________________________________________________________________________________________
add_17 (Add)                    (None, 16, 16, 32)   0           leaky_re_lu_33[0][0]             
                                                                 batch_normalization_35[0][0]     
__________________________________________________________________________________________________
leaky_re_lu_35 (LeakyReLU)      (None, 16, 16, 32)   0           add_17[0][0]                     
__________________________________________________________________________________________________
ternary_conv2d_37 (TernaryConv2 (None, 16, 16, 32)   9248        leaky_re_lu_35[0][0]             
__________________________________________________________________________________________________
batch_normalization_36 (BatchNo (None, 16, 16, 32)   128         ternary_conv2d_37[0][0]          
__________________________________________________________________________________________________
leaky_re_lu_36 (LeakyReLU)      (None, 16, 16, 32)   0           batch_normalization_36[0][0]     
__________________________________________________________________________________________________
ternary_conv2d_38 (TernaryConv2 (None, 16, 16, 32)   9248        leaky_re_lu_36[0][0]             
__________________________________________________________________________________________________
batch_normalization_37 (BatchNo (None, 16, 16, 32)   128         ternary_conv2d_38[0][0]          
__________________________________________________________________________________________________
add_18 (Add)                    (None, 16, 16, 32)   0           leaky_re_lu_35[0][0]             
                                                                 batch_normalization_37[0][0]     
__________________________________________________________________________________________________
leaky_re_lu_37 (LeakyReLU)      (None, 16, 16, 32)   0           add_18[0][0]                     
__________________________________________________________________________________________________
ternary_conv2d_39 (TernaryConv2 (None, 16, 16, 32)   9248        leaky_re_lu_37[0][0]             
__________________________________________________________________________________________________
batch_normalization_38 (BatchNo (None, 16, 16, 32)   128         ternary_conv2d_39[0][0]          
__________________________________________________________________________________________________
leaky_re_lu_38 (LeakyReLU)      (None, 16, 16, 32)   0           batch_normalization_38[0][0]     
__________________________________________________________________________________________________
ternary_conv2d_40 (TernaryConv2 (None, 16, 16, 32)   9248        leaky_re_lu_38[0][0]             
__________________________________________________________________________________________________
batch_normalization_39 (BatchNo (None, 16, 16, 32)   128         ternary_conv2d_40[0][0]          
__________________________________________________________________________________________________
add_19 (Add)                    (None, 16, 16, 32)   0           leaky_re_lu_37[0][0]             
                                                                 batch_normalization_39[0][0]     
__________________________________________________________________________________________________
leaky_re_lu_39 (LeakyReLU)      (None, 16, 16, 32)   0           add_19[0][0]                     
__________________________________________________________________________________________________
ternary_conv2d_41 (TernaryConv2 (None, 16, 16, 32)   9248        leaky_re_lu_39[0][0]             
__________________________________________________________________________________________________
batch_normalization_40 (BatchNo (None, 16, 16, 32)   128         ternary_conv2d_41[0][0]          
__________________________________________________________________________________________________
leaky_re_lu_40 (LeakyReLU)      (None, 16, 16, 32)   0           batch_normalization_40[0][0]     
__________________________________________________________________________________________________
ternary_conv2d_42 (TernaryConv2 (None, 16, 16, 32)   9248        leaky_re_lu_40[0][0]             
__________________________________________________________________________________________________
batch_normalization_41 (BatchNo (None, 16, 16, 32)   128         ternary_conv2d_42[0][0]          
__________________________________________________________________________________________________
add_20 (Add)                    (None, 16, 16, 32)   0           leaky_re_lu_39[0][0]             
                                                                 batch_normalization_41[0][0]     
__________________________________________________________________________________________________
leaky_re_lu_41 (LeakyReLU)      (None, 16, 16, 32)   0           add_20[0][0]                     
__________________________________________________________________________________________________
ternary_conv2d_43 (TernaryConv2 (None, 8, 8, 64)     18496       leaky_re_lu_41[0][0]             
__________________________________________________________________________________________________
batch_normalization_42 (BatchNo (None, 8, 8, 64)     256         ternary_conv2d_43[0][0]          
__________________________________________________________________________________________________
leaky_re_lu_42 (LeakyReLU)      (None, 8, 8, 64)     0           batch_normalization_42[0][0]     
__________________________________________________________________________________________________
ternary_conv2d_44 (TernaryConv2 (None, 8, 8, 64)     36928       leaky_re_lu_42[0][0]             
__________________________________________________________________________________________________
ternary_conv2d_45 (TernaryConv2 (None, 8, 8, 64)     2112        leaky_re_lu_41[0][0]             
__________________________________________________________________________________________________
batch_normalization_43 (BatchNo (None, 8, 8, 64)     256         ternary_conv2d_44[0][0]          
__________________________________________________________________________________________________
add_21 (Add)                    (None, 8, 8, 64)     0           ternary_conv2d_45[0][0]          
                                                                 batch_normalization_43[0][0]     
__________________________________________________________________________________________________
leaky_re_lu_43 (LeakyReLU)      (None, 8, 8, 64)     0           add_21[0][0]                     
__________________________________________________________________________________________________
ternary_conv2d_46 (TernaryConv2 (None, 8, 8, 64)     36928       leaky_re_lu_43[0][0]             
__________________________________________________________________________________________________
batch_normalization_44 (BatchNo (None, 8, 8, 64)     256         ternary_conv2d_46[0][0]          
__________________________________________________________________________________________________
leaky_re_lu_44 (LeakyReLU)      (None, 8, 8, 64)     0           batch_normalization_44[0][0]     
__________________________________________________________________________________________________
ternary_conv2d_47 (TernaryConv2 (None, 8, 8, 64)     36928       leaky_re_lu_44[0][0]             
__________________________________________________________________________________________________
batch_normalization_45 (BatchNo (None, 8, 8, 64)     256         ternary_conv2d_47[0][0]          
__________________________________________________________________________________________________
add_22 (Add)                    (None, 8, 8, 64)     0           leaky_re_lu_43[0][0]             
                                                                 batch_normalization_45[0][0]     
__________________________________________________________________________________________________
leaky_re_lu_45 (LeakyReLU)      (None, 8, 8, 64)     0           add_22[0][0]                     
__________________________________________________________________________________________________
ternary_conv2d_48 (TernaryConv2 (None, 8, 8, 64)     36928       leaky_re_lu_45[0][0]             
__________________________________________________________________________________________________
batch_normalization_46 (BatchNo (None, 8, 8, 64)     256         ternary_conv2d_48[0][0]          
__________________________________________________________________________________________________
leaky_re_lu_46 (LeakyReLU)      (None, 8, 8, 64)     0           batch_normalization_46[0][0]     
__________________________________________________________________________________________________
ternary_conv2d_49 (TernaryConv2 (None, 8, 8, 64)     36928       leaky_re_lu_46[0][0]             
__________________________________________________________________________________________________
batch_normalization_47 (BatchNo (None, 8, 8, 64)     256         ternary_conv2d_49[0][0]          
__________________________________________________________________________________________________
add_23 (Add)                    (None, 8, 8, 64)     0           leaky_re_lu_45[0][0]             
                                                                 batch_normalization_47[0][0]     
__________________________________________________________________________________________________
leaky_re_lu_47 (LeakyReLU)      (None, 8, 8, 64)     0           add_23[0][0]                     
__________________________________________________________________________________________________
ternary_conv2d_50 (TernaryConv2 (None, 8, 8, 64)     36928       leaky_re_lu_47[0][0]             
__________________________________________________________________________________________________
batch_normalization_48 (BatchNo (None, 8, 8, 64)     256         ternary_conv2d_50[0][0]          
__________________________________________________________________________________________________
leaky_re_lu_48 (LeakyReLU)      (None, 8, 8, 64)     0           batch_normalization_48[0][0]     
__________________________________________________________________________________________________
ternary_conv2d_51 (TernaryConv2 (None, 8, 8, 64)     36928       leaky_re_lu_48[0][0]             
__________________________________________________________________________________________________
batch_normalization_49 (BatchNo (None, 8, 8, 64)     256         ternary_conv2d_51[0][0]          
__________________________________________________________________________________________________
add_24 (Add)                    (None, 8, 8, 64)     0           leaky_re_lu_47[0][0]             
                                                                 batch_normalization_49[0][0]     
__________________________________________________________________________________________________
leaky_re_lu_49 (LeakyReLU)      (None, 8, 8, 64)     0           add_24[0][0]                     
__________________________________________________________________________________________________
ternary_conv2d_52 (TernaryConv2 (None, 8, 8, 64)     36928       leaky_re_lu_49[0][0]             
__________________________________________________________________________________________________
batch_normalization_50 (BatchNo (None, 8, 8, 64)     256         ternary_conv2d_52[0][0]          
__________________________________________________________________________________________________
leaky_re_lu_50 (LeakyReLU)      (None, 8, 8, 64)     0           batch_normalization_50[0][0]     
__________________________________________________________________________________________________
ternary_conv2d_53 (TernaryConv2 (None, 8, 8, 64)     36928       leaky_re_lu_50[0][0]             
__________________________________________________________________________________________________
batch_normalization_51 (BatchNo (None, 8, 8, 64)     256         ternary_conv2d_53[0][0]          
__________________________________________________________________________________________________
add_25 (Add)                    (None, 8, 8, 64)     0           leaky_re_lu_49[0][0]             
                                                                 batch_normalization_51[0][0]     
__________________________________________________________________________________________________
leaky_re_lu_51 (LeakyReLU)      (None, 8, 8, 64)     0           add_25[0][0]                     
__________________________________________________________________________________________________
ternary_conv2d_54 (TernaryConv2 (None, 8, 8, 64)     36928       leaky_re_lu_51[0][0]             
__________________________________________________________________________________________________
batch_normalization_52 (BatchNo (None, 8, 8, 64)     256         ternary_conv2d_54[0][0]          
__________________________________________________________________________________________________
leaky_re_lu_52 (LeakyReLU)      (None, 8, 8, 64)     0           batch_normalization_52[0][0]     
__________________________________________________________________________________________________
ternary_conv2d_55 (TernaryConv2 (None, 8, 8, 64)     36928       leaky_re_lu_52[0][0]             
__________________________________________________________________________________________________
batch_normalization_53 (BatchNo (None, 8, 8, 64)     256         ternary_conv2d_55[0][0]          
__________________________________________________________________________________________________
add_26 (Add)                    (None, 8, 8, 64)     0           leaky_re_lu_51[0][0]             
                                                                 batch_normalization_53[0][0]     
__________________________________________________________________________________________________
leaky_re_lu_53 (LeakyReLU)      (None, 8, 8, 64)     0           add_26[0][0]                     
__________________________________________________________________________________________________
ternary_conv2d_56 (TernaryConv2 (None, 8, 8, 64)     36928       leaky_re_lu_53[0][0]             
__________________________________________________________________________________________________
batch_normalization_54 (BatchNo (None, 8, 8, 64)     256         ternary_conv2d_56[0][0]          
__________________________________________________________________________________________________
leaky_re_lu_54 (LeakyReLU)      (None, 8, 8, 64)     0           batch_normalization_54[0][0]     
__________________________________________________________________________________________________
ternary_conv2d_57 (TernaryConv2 (None, 8, 8, 64)     36928       leaky_re_lu_54[0][0]             
__________________________________________________________________________________________________
batch_normalization_55 (BatchNo (None, 8, 8, 64)     256         ternary_conv2d_57[0][0]          
__________________________________________________________________________________________________
add_27 (Add)                    (None, 8, 8, 64)     0           leaky_re_lu_53[0][0]             
                                                                 batch_normalization_55[0][0]     
__________________________________________________________________________________________________
leaky_re_lu_55 (LeakyReLU)      (None, 8, 8, 64)     0           add_27[0][0]                     
__________________________________________________________________________________________________
ternary_conv2d_58 (TernaryConv2 (None, 8, 8, 64)     36928       leaky_re_lu_55[0][0]             
__________________________________________________________________________________________________
batch_normalization_56 (BatchNo (None, 8, 8, 64)     256         ternary_conv2d_58[0][0]          
__________________________________________________________________________________________________
leaky_re_lu_56 (LeakyReLU)      (None, 8, 8, 64)     0           batch_normalization_56[0][0]     
__________________________________________________________________________________________________
ternary_conv2d_59 (TernaryConv2 (None, 8, 8, 64)     36928       leaky_re_lu_56[0][0]             
__________________________________________________________________________________________________
batch_normalization_57 (BatchNo (None, 8, 8, 64)     256         ternary_conv2d_59[0][0]          
__________________________________________________________________________________________________
add_28 (Add)                    (None, 8, 8, 64)     0           leaky_re_lu_55[0][0]             
                                                                 batch_normalization_57[0][0]     
__________________________________________________________________________________________________
leaky_re_lu_57 (LeakyReLU)      (None, 8, 8, 64)     0           add_28[0][0]                     
__________________________________________________________________________________________________
ternary_conv2d_60 (TernaryConv2 (None, 8, 8, 64)     36928       leaky_re_lu_57[0][0]             
__________________________________________________________________________________________________
batch_normalization_58 (BatchNo (None, 8, 8, 64)     256         ternary_conv2d_60[0][0]          
__________________________________________________________________________________________________
leaky_re_lu_58 (LeakyReLU)      (None, 8, 8, 64)     0           batch_normalization_58[0][0]     
__________________________________________________________________________________________________
ternary_conv2d_61 (TernaryConv2 (None, 8, 8, 64)     36928       leaky_re_lu_58[0][0]             
__________________________________________________________________________________________________
batch_normalization_59 (BatchNo (None, 8, 8, 64)     256         ternary_conv2d_61[0][0]          
__________________________________________________________________________________________________
add_29 (Add)                    (None, 8, 8, 64)     0           leaky_re_lu_57[0][0]             
                                                                 batch_normalization_59[0][0]     
__________________________________________________________________________________________________
leaky_re_lu_59 (LeakyReLU)      (None, 8, 8, 64)     0           add_29[0][0]                     
__________________________________________________________________________________________________
ternary_conv2d_62 (TernaryConv2 (None, 8, 8, 64)     36928       leaky_re_lu_59[0][0]             
__________________________________________________________________________________________________
batch_normalization_60 (BatchNo (None, 8, 8, 64)     256         ternary_conv2d_62[0][0]          
__________________________________________________________________________________________________
leaky_re_lu_60 (LeakyReLU)      (None, 8, 8, 64)     0           batch_normalization_60[0][0]     
__________________________________________________________________________________________________
ternary_conv2d_63 (TernaryConv2 (None, 8, 8, 64)     36928       leaky_re_lu_60[0][0]             
__________________________________________________________________________________________________
batch_normalization_61 (BatchNo (None, 8, 8, 64)     256         ternary_conv2d_63[0][0]          
__________________________________________________________________________________________________
add_30 (Add)                    (None, 8, 8, 64)     0           leaky_re_lu_59[0][0]             
                                                                 batch_normalization_61[0][0]     
__________________________________________________________________________________________________
leaky_re_lu_61 (LeakyReLU)      (None, 8, 8, 64)     0           add_30[0][0]                     
__________________________________________________________________________________________________
average_pooling2d_1 (AveragePoo (None, 1, 1, 64)     0           leaky_re_lu_61[0][0]             
__________________________________________________________________________________________________
flatten_1 (Flatten)             (None, 64)           0           average_pooling2d_1[0][0]        
__________________________________________________________________________________________________
ternary_dense_1 (TernaryDense)  (None, 10)           650         flatten_1[0][0]                  
==================================================================================================
Total params: 959,658
Trainable params: 955,146
Non-trainable params: 4,512
__________________________________________________________________________________________________
loading data

Loading CIFAR-10 dataset...
(45000, 32, 32, 3)
setting up the network and creating callbacks
…
