Construct the Network

__________________________________________________________________________________________________
Layer (type)                    Output Shape         Param #     Connected to                     
==================================================================================================
input_2 (InputLayer)            (None, 32, 32, 3)    0                                            
__________________________________________________________________________________________________
quantized_conv2d_1 (QuantizedCo (None, 32, 32, 16)   448         input_2[0][0]                    
__________________________________________________________________________________________________
batch_normalization_1 (BatchNor (None, 32, 32, 16)   64          quantized_conv2d_1[0][0]         
__________________________________________________________________________________________________
activation_1 (Activation)       (None, 32, 32, 16)   0           batch_normalization_1[0][0]      
__________________________________________________________________________________________________
quantized_conv2d_2 (QuantizedCo (None, 32, 32, 16)   2320        activation_1[0][0]               
__________________________________________________________________________________________________
batch_normalization_2 (BatchNor (None, 32, 32, 16)   64          quantized_conv2d_2[0][0]         
__________________________________________________________________________________________________
activation_2 (Activation)       (None, 32, 32, 16)   0           batch_normalization_2[0][0]      
__________________________________________________________________________________________________
quantized_conv2d_3 (QuantizedCo (None, 32, 32, 16)   2320        activation_2[0][0]               
__________________________________________________________________________________________________
batch_normalization_3 (BatchNor (None, 32, 32, 16)   64          quantized_conv2d_3[0][0]         
__________________________________________________________________________________________________
add_1 (Add)                     (None, 32, 32, 16)   0           activation_1[0][0]               
                                                                 batch_normalization_3[0][0]      
__________________________________________________________________________________________________
activation_3 (Activation)       (None, 32, 32, 16)   0           add_1[0][0]                      
__________________________________________________________________________________________________
quantized_conv2d_4 (QuantizedCo (None, 32, 32, 16)   2320        activation_3[0][0]               
__________________________________________________________________________________________________
batch_normalization_4 (BatchNor (None, 32, 32, 16)   64          quantized_conv2d_4[0][0]         
__________________________________________________________________________________________________
activation_4 (Activation)       (None, 32, 32, 16)   0           batch_normalization_4[0][0]      
__________________________________________________________________________________________________
quantized_conv2d_5 (QuantizedCo (None, 32, 32, 16)   2320        activation_4[0][0]               
__________________________________________________________________________________________________
batch_normalization_5 (BatchNor (None, 32, 32, 16)   64          quantized_conv2d_5[0][0]         
__________________________________________________________________________________________________
add_2 (Add)                     (None, 32, 32, 16)   0           activation_3[0][0]               
                                                                 batch_normalization_5[0][0]      
__________________________________________________________________________________________________
activation_5 (Activation)       (None, 32, 32, 16)   0           add_2[0][0]                      
__________________________________________________________________________________________________
quantized_conv2d_6 (QuantizedCo (None, 32, 32, 16)   2320        activation_5[0][0]               
__________________________________________________________________________________________________
batch_normalization_6 (BatchNor (None, 32, 32, 16)   64          quantized_conv2d_6[0][0]         
__________________________________________________________________________________________________
activation_6 (Activation)       (None, 32, 32, 16)   0           batch_normalization_6[0][0]      
__________________________________________________________________________________________________
quantized_conv2d_7 (QuantizedCo (None, 32, 32, 16)   2320        activation_6[0][0]               
__________________________________________________________________________________________________
batch_normalization_7 (BatchNor (None, 32, 32, 16)   64          quantized_conv2d_7[0][0]         
__________________________________________________________________________________________________
add_3 (Add)                     (None, 32, 32, 16)   0           activation_5[0][0]               
                                                                 batch_normalization_7[0][0]      
__________________________________________________________________________________________________
activation_7 (Activation)       (None, 32, 32, 16)   0           add_3[0][0]                      
__________________________________________________________________________________________________
quantized_conv2d_8 (QuantizedCo (None, 32, 32, 16)   2320        activation_7[0][0]               
__________________________________________________________________________________________________
batch_normalization_8 (BatchNor (None, 32, 32, 16)   64          quantized_conv2d_8[0][0]         
__________________________________________________________________________________________________
activation_8 (Activation)       (None, 32, 32, 16)   0           batch_normalization_8[0][0]      
__________________________________________________________________________________________________
quantized_conv2d_9 (QuantizedCo (None, 32, 32, 16)   2320        activation_8[0][0]               
__________________________________________________________________________________________________
batch_normalization_9 (BatchNor (None, 32, 32, 16)   64          quantized_conv2d_9[0][0]         
__________________________________________________________________________________________________
add_4 (Add)                     (None, 32, 32, 16)   0           activation_7[0][0]               
                                                                 batch_normalization_9[0][0]      
__________________________________________________________________________________________________
activation_9 (Activation)       (None, 32, 32, 16)   0           add_4[0][0]                      
__________________________________________________________________________________________________
quantized_conv2d_10 (QuantizedC (None, 32, 32, 16)   2320        activation_9[0][0]               
__________________________________________________________________________________________________
batch_normalization_10 (BatchNo (None, 32, 32, 16)   64          quantized_conv2d_10[0][0]        
__________________________________________________________________________________________________
activation_10 (Activation)      (None, 32, 32, 16)   0           batch_normalization_10[0][0]     
__________________________________________________________________________________________________
quantized_conv2d_11 (QuantizedC (None, 32, 32, 16)   2320        activation_10[0][0]              
__________________________________________________________________________________________________
batch_normalization_11 (BatchNo (None, 32, 32, 16)   64          quantized_conv2d_11[0][0]        
__________________________________________________________________________________________________
add_5 (Add)                     (None, 32, 32, 16)   0           activation_9[0][0]               
                                                                 batch_normalization_11[0][0]     
__________________________________________________________________________________________________
activation_11 (Activation)      (None, 32, 32, 16)   0           add_5[0][0]                      
__________________________________________________________________________________________________
quantized_conv2d_12 (QuantizedC (None, 16, 16, 32)   4640        activation_11[0][0]              
__________________________________________________________________________________________________
batch_normalization_12 (BatchNo (None, 16, 16, 32)   128         quantized_conv2d_12[0][0]        
__________________________________________________________________________________________________
activation_12 (Activation)      (None, 16, 16, 32)   0           batch_normalization_12[0][0]     
__________________________________________________________________________________________________
quantized_conv2d_13 (QuantizedC (None, 16, 16, 32)   9248        activation_12[0][0]              
__________________________________________________________________________________________________
quantized_conv2d_14 (QuantizedC (None, 16, 16, 32)   544         activation_11[0][0]              
__________________________________________________________________________________________________
batch_normalization_13 (BatchNo (None, 16, 16, 32)   128         quantized_conv2d_13[0][0]        
__________________________________________________________________________________________________
add_6 (Add)                     (None, 16, 16, 32)   0           quantized_conv2d_14[0][0]        
                                                                 batch_normalization_13[0][0]     
__________________________________________________________________________________________________
activation_13 (Activation)      (None, 16, 16, 32)   0           add_6[0][0]                      
__________________________________________________________________________________________________
quantized_conv2d_15 (QuantizedC (None, 16, 16, 32)   9248        activation_13[0][0]              
__________________________________________________________________________________________________
batch_normalization_14 (BatchNo (None, 16, 16, 32)   128         quantized_conv2d_15[0][0]        
__________________________________________________________________________________________________
activation_14 (Activation)      (None, 16, 16, 32)   0           batch_normalization_14[0][0]     
__________________________________________________________________________________________________
quantized_conv2d_16 (QuantizedC (None, 16, 16, 32)   9248        activation_14[0][0]              
__________________________________________________________________________________________________
batch_normalization_15 (BatchNo (None, 16, 16, 32)   128         quantized_conv2d_16[0][0]        
__________________________________________________________________________________________________
add_7 (Add)                     (None, 16, 16, 32)   0           activation_13[0][0]              
                                                                 batch_normalization_15[0][0]     
__________________________________________________________________________________________________
activation_15 (Activation)      (None, 16, 16, 32)   0           add_7[0][0]                      
__________________________________________________________________________________________________
quantized_conv2d_17 (QuantizedC (None, 16, 16, 32)   9248        activation_15[0][0]              
__________________________________________________________________________________________________
batch_normalization_16 (BatchNo (None, 16, 16, 32)   128         quantized_conv2d_17[0][0]        
__________________________________________________________________________________________________
activation_16 (Activation)      (None, 16, 16, 32)   0           batch_normalization_16[0][0]     
__________________________________________________________________________________________________
quantized_conv2d_18 (QuantizedC (None, 16, 16, 32)   9248        activation_16[0][0]              
__________________________________________________________________________________________________
batch_normalization_17 (BatchNo (None, 16, 16, 32)   128         quantized_conv2d_18[0][0]        
__________________________________________________________________________________________________
add_8 (Add)                     (None, 16, 16, 32)   0           activation_15[0][0]              
                                                                 batch_normalization_17[0][0]     
__________________________________________________________________________________________________
activation_17 (Activation)      (None, 16, 16, 32)   0           add_8[0][0]                      
__________________________________________________________________________________________________
quantized_conv2d_19 (QuantizedC (None, 16, 16, 32)   9248        activation_17[0][0]              
__________________________________________________________________________________________________
batch_normalization_18 (BatchNo (None, 16, 16, 32)   128         quantized_conv2d_19[0][0]        
__________________________________________________________________________________________________
activation_18 (Activation)      (None, 16, 16, 32)   0           batch_normalization_18[0][0]     
__________________________________________________________________________________________________
quantized_conv2d_20 (QuantizedC (None, 16, 16, 32)   9248        activation_18[0][0]              
__________________________________________________________________________________________________
batch_normalization_19 (BatchNo (None, 16, 16, 32)   128         quantized_conv2d_20[0][0]        
__________________________________________________________________________________________________
add_9 (Add)                     (None, 16, 16, 32)   0           activation_17[0][0]              
                                                                 batch_normalization_19[0][0]     
__________________________________________________________________________________________________
activation_19 (Activation)      (None, 16, 16, 32)   0           add_9[0][0]                      
__________________________________________________________________________________________________
quantized_conv2d_21 (QuantizedC (None, 16, 16, 32)   9248        activation_19[0][0]              
__________________________________________________________________________________________________
batch_normalization_20 (BatchNo (None, 16, 16, 32)   128         quantized_conv2d_21[0][0]        
__________________________________________________________________________________________________
activation_20 (Activation)      (None, 16, 16, 32)   0           batch_normalization_20[0][0]     
__________________________________________________________________________________________________
quantized_conv2d_22 (QuantizedC (None, 16, 16, 32)   9248        activation_20[0][0]              
__________________________________________________________________________________________________
batch_normalization_21 (BatchNo (None, 16, 16, 32)   128         quantized_conv2d_22[0][0]        
__________________________________________________________________________________________________
add_10 (Add)                    (None, 16, 16, 32)   0           activation_19[0][0]              
                                                                 batch_normalization_21[0][0]     
__________________________________________________________________________________________________
activation_21 (Activation)      (None, 16, 16, 32)   0           add_10[0][0]                     
__________________________________________________________________________________________________
quantized_conv2d_23 (QuantizedC (None, 8, 8, 64)     18496       activation_21[0][0]              
__________________________________________________________________________________________________
batch_normalization_22 (BatchNo (None, 8, 8, 64)     256         quantized_conv2d_23[0][0]        
__________________________________________________________________________________________________
activation_22 (Activation)      (None, 8, 8, 64)     0           batch_normalization_22[0][0]     
__________________________________________________________________________________________________
quantized_conv2d_24 (QuantizedC (None, 8, 8, 64)     36928       activation_22[0][0]              
__________________________________________________________________________________________________
quantized_conv2d_25 (QuantizedC (None, 8, 8, 64)     2112        activation_21[0][0]              
__________________________________________________________________________________________________
batch_normalization_23 (BatchNo (None, 8, 8, 64)     256         quantized_conv2d_24[0][0]        
__________________________________________________________________________________________________
add_11 (Add)                    (None, 8, 8, 64)     0           quantized_conv2d_25[0][0]        
                                                                 batch_normalization_23[0][0]     
__________________________________________________________________________________________________
activation_23 (Activation)      (None, 8, 8, 64)     0           add_11[0][0]                     
__________________________________________________________________________________________________
quantized_conv2d_26 (QuantizedC (None, 8, 8, 64)     36928       activation_23[0][0]              
__________________________________________________________________________________________________
batch_normalization_24 (BatchNo (None, 8, 8, 64)     256         quantized_conv2d_26[0][0]        
__________________________________________________________________________________________________
activation_24 (Activation)      (None, 8, 8, 64)     0           batch_normalization_24[0][0]     
__________________________________________________________________________________________________
quantized_conv2d_27 (QuantizedC (None, 8, 8, 64)     36928       activation_24[0][0]              
__________________________________________________________________________________________________
batch_normalization_25 (BatchNo (None, 8, 8, 64)     256         quantized_conv2d_27[0][0]        
__________________________________________________________________________________________________
add_12 (Add)                    (None, 8, 8, 64)     0           activation_23[0][0]              
                                                                 batch_normalization_25[0][0]     
__________________________________________________________________________________________________
activation_25 (Activation)      (None, 8, 8, 64)     0           add_12[0][0]                     
__________________________________________________________________________________________________
quantized_conv2d_28 (QuantizedC (None, 8, 8, 64)     36928       activation_25[0][0]              
__________________________________________________________________________________________________
batch_normalization_26 (BatchNo (None, 8, 8, 64)     256         quantized_conv2d_28[0][0]        
__________________________________________________________________________________________________
activation_26 (Activation)      (None, 8, 8, 64)     0           batch_normalization_26[0][0]     
__________________________________________________________________________________________________
quantized_conv2d_29 (QuantizedC (None, 8, 8, 64)     36928       activation_26[0][0]              
__________________________________________________________________________________________________
batch_normalization_27 (BatchNo (None, 8, 8, 64)     256         quantized_conv2d_29[0][0]        
__________________________________________________________________________________________________
add_13 (Add)                    (None, 8, 8, 64)     0           activation_25[0][0]              
                                                                 batch_normalization_27[0][0]     
__________________________________________________________________________________________________
activation_27 (Activation)      (None, 8, 8, 64)     0           add_13[0][0]                     
__________________________________________________________________________________________________
quantized_conv2d_30 (QuantizedC (None, 8, 8, 64)     36928       activation_27[0][0]              
__________________________________________________________________________________________________
batch_normalization_28 (BatchNo (None, 8, 8, 64)     256         quantized_conv2d_30[0][0]        
__________________________________________________________________________________________________
activation_28 (Activation)      (None, 8, 8, 64)     0           batch_normalization_28[0][0]     
__________________________________________________________________________________________________
quantized_conv2d_31 (QuantizedC (None, 8, 8, 64)     36928       activation_28[0][0]              
__________________________________________________________________________________________________
batch_normalization_29 (BatchNo (None, 8, 8, 64)     256         quantized_conv2d_31[0][0]        
__________________________________________________________________________________________________
add_14 (Add)                    (None, 8, 8, 64)     0           activation_27[0][0]              
                                                                 batch_normalization_29[0][0]     
__________________________________________________________________________________________________
activation_29 (Activation)      (None, 8, 8, 64)     0           add_14[0][0]                     
__________________________________________________________________________________________________
quantized_conv2d_32 (QuantizedC (None, 8, 8, 64)     36928       activation_29[0][0]              
__________________________________________________________________________________________________
batch_normalization_30 (BatchNo (None, 8, 8, 64)     256         quantized_conv2d_32[0][0]        
__________________________________________________________________________________________________
activation_30 (Activation)      (None, 8, 8, 64)     0           batch_normalization_30[0][0]     
__________________________________________________________________________________________________
quantized_conv2d_33 (QuantizedC (None, 8, 8, 64)     36928       activation_30[0][0]              
__________________________________________________________________________________________________
batch_normalization_31 (BatchNo (None, 8, 8, 64)     256         quantized_conv2d_33[0][0]        
__________________________________________________________________________________________________
add_15 (Add)                    (None, 8, 8, 64)     0           activation_29[0][0]              
                                                                 batch_normalization_31[0][0]     
__________________________________________________________________________________________________
activation_31 (Activation)      (None, 8, 8, 64)     0           add_15[0][0]                     
__________________________________________________________________________________________________
average_pooling2d_1 (AveragePoo (None, 1, 1, 64)     0           activation_31[0][0]              
__________________________________________________________________________________________________
flatten_1 (Flatten)             (None, 64)           0           average_pooling2d_1[0][0]        
__________________________________________________________________________________________________
quantized_dense_2 (QuantizedDen (None, 10)           650         flatten_1[0][0]                  
==================================================================================================
Total params: 470,218
Trainable params: 467,946
Non-trainable params: 2,272
__________________________________________________________________________________________________
loading data

Loading CIFAR-10 dataset...
(45000, 32, 32, 3)
setting up the network and creating callbacks
…
